test_c01_new.pt (torch, 75247 bytes, 8 tensors)

conv1.weight f4 [16, 3, 3, 3]
00000000: 7cb0 213e e131 823e 1a9a 593e 2065 5fbc
00000010: 8072 363d 9916 8c3d 2e48 a13c 363b babd
00000020: b011 40be a96d 803d a190 613c 073c f9bd
00000030: 5bc8 f4bd d07f 853d 9ce8 a1bd e430 63bd
00000040: 60c2 60be 2fdc 013d a0bf a2bd ab6d 063e
00000050: edba 593d 2ce3 b63d 7f92 d8bd cd2f 6b3d
00000060: 373e 12be 33af 853d 1e0d 0abe 576a 98bd
00000070: f5c8 83bd 00c5 79bb a05d e8bd 8852 2c3e
00000080: c1b4 14be 31d1 afbd 327e 053e 5812 1f3e
00000090: bd94 313e 22d5 de3d 4154 7d3d 4950 8fbd
000000a0: bd15 143e 791a 2fbc 4a07 debd 6fbb 27bc
000000b0: e570 773d 9cdb b33d 7cf1 243e f3b7 a5bd
000000c0: 5616 623e 7f21 1b3e 22de 493e 84ce 223d
000000d0: 35e6 49bc ffef e1bd 3fff f2bc f7a6 e73d
000000e0: 9f05 3a3e c345 cf3d a5db 2d3c fad0 f53c
000000f0: e0d3 b03b 3f01 2a3d 8ccc febd db85 7a3d
00000100: f639 93bd d36d 00be deb1 98bc e922 c2bb
00000110: d11d a03d 117e babd 0e3f a03d 6bd8 553e
00000120: 2503 c9bd 04c4 e5bd 272b 46be dcb5 09be
00000130: 9cf3 a7bd 4183 2ebe e7ad 073e 1bfb ddbd
00000140: df31 6ebe be40 f13d abaf 7f3d 73c2 0ebe
00000150: f2eb 24be a798 453c 472b 2b3d 328a ba3d
00000160: 58b5 213e f034 29be eaf8 af3d d848 8fbd
00000170: 78c3 533c 5b80 d5bd 1f5e 3ebe 38ea 3fbe
00000180: 0a85 13be 3786 a03d 86d1 0ebe 3827 a9bd
00000190: 3c12 92bc 643a c13b cb68 3dbe e77f 8c3d
000001a0: 860c c23d 4983 e03c 3dbd 2bbe 1bb9 0cbe
000001b0: e707 5cbd 31f5 f03d 1c43 fcbc 7931 aa3c
000001c0: 11be 703d b1c2 04be 90ff e03c 4072 433d
000001d0: ec30 0f3e b704 f33d 728f c2bd 526b 9dbd
000001e0: a469 0b3e b358 08be e212 503d abe0 593d
000001f0: cf5b 0a3c d5be a93d b517 343d 73f7 e9bd
00000200: b0a3 be37 3829 59bd 639f 3f3e 6b11 2f3e
00000210: df4b 88bd 45a6 35bc 790a fbbc e47a fbba
00000220: 1cca 393e e7e1 ff3d 7a99 743d 26f4 433e
00000230: 3d3d 07be 90b2 923d 30e4 3f3e 1cbe a13d
00000240: ebc0 223e e6fe 97bd 986f 7a3c 1ea5 213e
00000250: 2ea6 51bb bd72 393e 093b 0cbc f868 363d
00000260: c84c 3bbe ac41 f63d a102 1a3e a86f 463e
00000270: 1f85 dcbd 0ca5 283e 0b6f 00be 3776 323d
00000280: b2cf 363e 9805 f83d ae94 fcbd 3e99 0bbe
00000290: 833e 103e 936f 1fbd 76e0 35be d1e3 013e
000002a0: 5eb2 c43d 0102 59bc 6922 f8bd 86ab d2bd
000002b0: a0a3 943d 9bec e2bd 08e8 523c 06ce ebbd
000002c0: fad1 b33d 0c93 fc3d 99ff 113c f0ea 01be
000002d0: e4a9 423e fcda da3d fdf6 b73d 5f9f 35bd
000002e0: ac4c aebd 10d4 693e 30a5 633e bdaf 3b3e
000002f0: 3b72 0b3e 30a4 daba b1fa b33d 130b d53d
00000300: 501e 6bbd 9043 c73d a45f 8c3d 420f f7bd
00000310: 66cb 423e f747 d63d 0f44 2f3e 9492 443e
00000320: 3b0b 813d 6d2f d53d 946c f33c 1913 29bb
00000330: 3c5e 4a3e 3404 a5bc ab86 8d3d c69c 6b3d
00000340: 8639 2b3e ab70 d9bc 9f9d 8fbd cef7 82bd
00000350: c92d 113d 24e9 9bbc c71a 27be 2bc6 5abe
00000360: 6d20 74bc 3a43 28be d267 adbd 551d 47be
00000370: 3fec f8bd ae62 acbd 88df 1abd 78cb 41bd
00000380: 3efd ee3c 12fe 35be f270 89bd 2e74 cf3d
00000390: bbfe ef3d 4192 10bd 6a7a b2bd 8b09 36bd
000003a0: 0a8e 4bbe 0e35 853d 4e27 c9bd 77c0 343e
000003b0: cec6 f43d 290f 9fbd 0a43 06be 0864 0ebe
000003c0: 3694 49bb bb35 393e 61a1 343c 1def 15bc
000003d0: 5724 96bc babe 31be 78ff c2bd f759 123e
000003e0: 7d88 3f3e 80ed 883c 8e57 fb3d 89e6 0ebd
000003f0: 08ac a93d 3af5 23be 6264 81ba cc66 903d
0.1578998 0.2542868 0.21250191 -0.01363495 0.04454279 0.06840248 0.019687738 -0.09093325
-0.18756747 0.06270916 0.013767392 -0.121696524 -0.11952277 0.06518519 -0.07905695 -0.055466548
-0.21949148 0.031704124 -0.07946706 0.13127773 0.053156782 0.08930048 -0.10574817 0.057418633
-0.14281546 0.06527557 -0.13481566 -0.07442158 -0.06434814 -0.0038111806 -0.113459826 0.16828358
-0.14522077 -0.08584822 0.13036421 0.15534341 0.17341895 0.108804956 0.06184793 -0.06997735
0.14461417 -0.010687464 -0.10841234 -0.010237559 0.0604104 0.087821215 0.16107744 -0.08091726
0.22078833 0.15149496 0.19713643 0.03974773 -0.012322952 -0.11032104 -0.029662726 0.11311143
0.18166207 0.10120728 0.010611449 0.030006874 0.005396351 0.041505095 -0.12441358 0.06116281
-0.071887895 -0.12541895 -0.018639501 -0.005924572 0.07818187 -0.091060765 0.07824527 0.20883338
-0.09815053 -0.11219028 -0.19352399 -0.1344828 -0.08200762 -0.17042257 0.13249932 -0.1083891
-0.23261212 0.11779927 0.06242339 -0.13941364 -0.16105631 0.012060321 0.04178932 0.0910839
0.15791833 -0.165241 0.085923985 -0.06996316 0.012925021 -0.104248725 -0.18590592 -0.18741691
-0.14406219 0.078380994 -0.13947114 -0.082594335 -0.01783096 0.0058968533 -0.18497007 0.06860333
0.09475045 0.027406352 -0.16771407 -0.13742487 -0.053718474 0.117655165 -0.030793719 0.020775544
0.05877501 -0.12964894 0.027465612 0.04771638 0.13983506 0.11866134 -0.09500016 -0.07686485
0.13614517 -0.13315086 0.050799258 0.053192776 0.00844474 0.082883514 0.04396792 -0.1142415
2.2725988e-05 -0.053017825 0.18713145 0.17096488 -0.06655096 -0.011087005 -0.030644642 -0.0019186405
0.18143505 0.12494259 0.05971668 0.19136104 -0.13206954 0.07162964 0.1873939 0.078975886
0.15893905 -0.07421665 0.015285395 0.15785643 -0.003198992 0.18110175 -0.008558997 0.0445337
-0.18291008 0.12024245 0.15040065 0.19378531 -0.10767578 0.1646921 -0.1254236 0.04356977
0.17852667 0.12110442 -0.12333046 -0.13632676 0.14086346 -0.038924765 -0.17761406 0.12684561
0.09604333 -0.013245107 -0.12115938 -0.10286622 0.072577715 -0.11080285 0.012872703 -0.11513905
0.08780284 0.123327345 0.008911037 -0.12687278 0.1901012 0.10686299 0.08982656 -0.04434144
-0.08510718 0.22834802 0.22230983 0.18328758 0.13617794 -0.0016681012 0.0878805 0.10402503
-0.057401955 0.097296834 0.068541795 -0.12063457 0.19022903 0.10462945 0.17115806 0.1919654
0.0630097 0.104094364 0.02971486 -0.0025798737 0.1976251 -0.020143606 0.069104515 0.057522558
0.16721162 -0.026542982 -0.07012486 -0.06394921 0.035444055 -0.019032069 -0.16318808 -0.21364658
-0.014900309 -0.16431895 -0.08467068 -0.19444783 -0.12154435 -0.08417259 -0.037810832 -0.047313184
0.02917349 -0.17772701 -0.06710996 0.101295814 0.11718508 -0.03529573 -0.08714755 -0.044442695
-0.19878402 0.0650426 -0.0982195 0.17651545 0.119519815 -0.077665634 -0.13111511 -0.13905346
-0.0030758507 0.18086903 0.011024804 -0.009151247 -0.018327875 -0.17357913 -0.09521383 0.14292131
0.1870441 0.016714811 0.12272559 -0.034887824 0.082847655 -0.16011515 -0.0009871835 0.07050857

conv1.bias f4 [16]
00000000: 24f1 92bd 0e9f b2bd b9ff 973d ad66 403e
00000010: 97b0 0f3e e320 9ebc c0b8 db3d 5b4a 203e
00000020: c2e3 95bd 12fe 953c 0d24 b53d 5f0b 07be
00000030: 9fb5 6ebd 6215 3fbd 48f3 0fbe 5211 da3d
-0.071749 -0.087217435 0.07421822 0.18789168 0.14032207 -0.019302791 0.10728598 0.15653364
-0.07318832 0.018309627 0.08844767 -0.13187931 -0.058278676 -0.04665125 -0.14057648 0.10647835

conv2.weight f4 [8, 16, 3, 3]
00000000: abd8 09bd 5c6a 8c3d 8203 913c 4fba b93c
00000010: b3b7 b33d d5c8 6fbc 13ad a93d 4f7d 283c
00000020: 2652 a13d c6d7 5cbd 7b8f 973c 7966 84bb
00000030: e5ca bbbd 2ea5 09bd 884e 0fbd 71d7 7dbd
00000040: e383 a9bd 8b0f 7e3c c0d1 86bc 3457 363d
00000050: 4f98 a5bc da33 0b3e 35c7 f53c deee 4bbb
00000060: e909 6d3b 9075 ad3c 631f d93d b263 a13d
00000070: 489f acbc 8110 3ebd f7bb c0bc 6826 023e
00000080: 43bb 893d 7b21 7d3d eb7b adbc d6eb 023c
00000090: 52d9 8abc 17c6 1c3d e384 c7bc d731 823b
000000a0: e5f8 853d 59e1 b13d 4eac 663c 9b8e 2b3b
000000b0: dd9d 673d 20f9 043b 8cbf 93bd 1d71 8d3d
000000c0: 9af9 1cbd 5c5d d93c f2da b23d 4038 86bd
000000d0: 185b 3d3d 35d6 57bc 432a a1bd e657 91bd
000000e0: b10c 8fbd e334 a6bd 8181 03bd 7dad 173d
000000f0: acf9 84bd 58bc 81bd 2f5a 2b3c dd27 17bd
00000100: 8302 aa3d d9fb c63c 185d e0bc 6b80 0bbd
00000110: 3c3a 893d b1b8 e53d 83fe 3bbc 473c 73bc
00000120: 924a 09bd 13b1 b93d 803d 0f3d ad1c a73d
00000130: efe1 0d3a 5801 803d c09a 953d 4175 6f3d
00000140: 01d8 34bd 6205 62bc bcbf 943c 08b8 b63d
00000150: b907 47bd 0be0 d23d b349 8e3d b384 443d
00000160: 1f99 2f3d f9be a93d bd7b 3ebd 3775 6e3d
00000170: 1bd6 50bd f1d0 81bd 84eb 9bbb 80ee b5bc
00000180: 480c 4b3d f2bd 7f3d 0b7a 303c 2573 60bd
00000190: 36d4 3ebc e518 453c 632d a83d 5a06 8a3c
000001a0: e61b 8dbd 0c10 ab3d 2afa 5ebc 362b 07bd
000001b0: 9257 94bd e4a7 433c 3a19 47bd a973 09bd
000001c0: bed5 dcbd 9379 afbd dc6b 663d e444 293c
000001d0: 847b 443b 2eec 993d c0fa 1a3d cbde 0c3c
000001e0: eeaf a43d 471b e03c 0fa5 c33d e316 4f3d
000001f0: 2eeb 5c3d ba1d 803d 843e a23d 81c6 96bc
00000200: 3e88 903d 7e5f cebb 83fa 233a 41d4 af3d
00000210: 547a 65bd b870 093d 908a edbc 0987 873d
00000220: 9128 62bd 673c 3f3d 93f2 bdbd 1236 143c
00000230: 63b6 3ebd 8fee 8bbd f8b1 c4bd ba3c 1cbd
00000240: c636 c93d f553 be3b 7a48 5ebd 7255 873d
00000250: dc04 b03d aa13 e03c eccf 473c 934c 5e3d
00000260: 357c 04bd ea11 883b d9e4 b33d 01f2 e8bc
00000270: 2d41 f13d 3724 df3c 7a45 9c3d cbe9 913d
00000280: 635c 48bd de6c 91bc 742e 0e3d 3b64 093d
00000290: d2f6 60bc f31c 213c e60e 013c 6149 bbbd
000002a0: 0bef 873b 5e5d a2bd 3e57 3abd edc4 cc3d
000002b0: 44c2 63bc e589 143d 3ff2 e0bb 5d44 c3bc
000002c0: 53c3 b5bb 467b 373d 46c0 ac3c d5ac cf3d
000002d0: 83bc c03d 1c20 233c 9380 ae3c deeb 5f3d
000002e0: bbe3 81bc 1090 1e3d 8320 0fbd 8bad 133d
000002f0: 9c53 0bbd 2f38 b0bb d249 b53c b9c1 76bd
00000300: 1a4b c83d 18cc 2c3d 09b1 193d 8e9e 693d
00000310: 6396 993c ec0e 183b 4dec 2fbb fadf da3d
00000320: 2e86 5e3c 4ba2 e23d 3f58 143d 6042 a8b9
00000330: 7a24 743c 600c c83d d686 de3c 2f7d 69bd
00000340: 4487 5e3b 8a98 96bd e067 b7ba 0596 163d
00000350: 70e7 21bc 8c3b 6fbd 6b8d d4bc 8cfa 673d
00000360: f4ea 8e3d 462c 8a3d 6ba1 c9bb eb51 5e3d
00000370: b68b 993d 406d a53d a60a dd3d e435 2cbd
00000380: ae4e e0bc d61f 333d a459 0cbc d93c bf3d
00000390: 015e 463c d4a7 5c3c 9d54 323d 4600 9a3d
000003a0: f35b 51bd b17f 313d b648 5c3d 8a32 0f3d
000003b0: d6f3 e13b dd12 1b3d 01f5 233a 3b68 723d
000003c0: 8c85 ce3d dc1d 743d eb3d 90bc 36ef c53d
000003d0: 027f 58bd 6554 363d edb9 363b 6f20 98bc
000003e0: 4ebc 183c 0d27 bc3d 823f 1fbd cd69 7dbb
000003f0: cd9d 653c c61c 873d 15ec e03c 063d 063e
-0.033653896 0.06856224 0.017701868 0.022671847 0.08775272 -0.014635284 0.082849644 0.010283782
0.07876997 -0.053916715 0.018501034 -0.004040536 -0.091695584 -0.033604793 -0.034987003 -0.06197304
-0.082771085 0.015506635 -0.016457438 0.044516757 -0.020214228 0.13593999 0.030002216 -0.0031117718
0.0036169237 0.021174222 0.1060169 0.078803435 -0.021072045 -0.046402458 -0.023527129 0.12709963
0.067251705 0.061799508 -0.021177253 0.007990798 -0.01694933 0.03827485 -0.024355358 0.0039732265
0.065416135 0.0868556 0.014079167 0.0026177529 0.056547035 0.0020290092 -0.07214269 0.0690634
-0.038323976 0.026533775 0.08733167 -0.065536976 0.046229452 -0.0131736295 -0.07869389 -0.070968434
-0.069848426 -0.08115556 -0.032105926 0.037030686 -0.06492934 -0.06334752 0.010458513 -0.03690325
0.0830126 0.024290012 -0.02738814 -0.034058016 0.067005605 0.11216868 -0.011474255 -0.014845914
-0.03351838 0.09066977 0.03497076 0.08159766 0.000541239 0.06250256 0.07304907 0.05846143
-0.04415131 -0.013795229 0.018157832 0.0892182 -0.04859135 0.10296639 0.06947651 0.047978114
0.042870637 0.08288378 -0.046504725 0.058217254 -0.050985437 -0.063386805 -0.0047583003 -0.022208452
0.04957226 0.062437005 0.010771285 -0.05479731 -0.011647275 0.012029861 0.08211782 0.016848732
-0.06890087 0.0835267 -0.013609448 -0.033000194 -0.07243265 0.011941884 -0.048608042 -0.033557568
-0.107829556 -0.0856811 0.056255206 0.010331366 0.0029980848 0.07515751 0.03783679 0.00859804
0.080413684 0.027356757 0.09552967 0.050558936 0.053935222 0.0625567 0.0792208 -0.0184052
0.07057236 -0.0062980046 0.00062552857 0.08585406 -0.056024864 0.033554763 -0.028996736 0.06617553
-0.05521447 0.046688464 -0.09274783 0.0090460945 -0.046560656 -0.06832611 -0.09604257 -0.03814385
0.098249 0.0058083483 -0.054268338 0.06608094 0.08594677 0.027353127 0.0121955685 0.054272246
-0.032345016 0.004152526 0.087838836 -0.028435709 0.117800094 0.027238948 0.07630439 0.071246706
-0.04891623 -0.017752107 0.03471227 0.033542853 -0.013730722 0.009833562 0.007877087 -0.09144855
0.004148369 -0.07927965 -0.045493357 0.09998498 -0.013901297 0.03626432 -0.0068648155 -0.02383631
-0.005546966 0.044795297 0.021087777 0.10140387 0.09410956 0.009956386 0.021301543 0.0546683
-0.01585566 0.038711607 -0.034943115 0.036054175 -0.034015283 -0.0053777914 0.022129927 -0.060243342
0.097799495 0.042186826 0.03752235 0.057035975 0.018748468 0.0023202254 -0.0026843727 0.106872514
0.013581796 0.11066111 0.03621697 -0.0003209291 0.014901275 0.09767985 0.027163904 -0.05700415
0.0033955136 -0.07353313 -0.0013992749 0.036764164 -0.009881839 -0.058406398 -0.02594634 0.056635424
0.069784075 0.06746726 -0.0061532757 0.05427734 0.07497351 0.080774784 0.10793047 -0.04204358
-0.027381267 0.043731533 -0.008566294 0.09337778 0.012107373 0.013467748 0.043537725 0.075195834
-0.05111308 0.043334667 0.05378028 0.034960307 0.0068955226 0.037859786 0.0006254465 0.059181433
0.10084066 0.05959879 -0.01760765 0.096647665 -0.0528555 0.04451408 0.0027881816 -0.018570153
0.009322239 0.09187136 -0.038878925 -0.0038667799 0.014014673 0.06597285 0.027456323 0.13109216

conv2.bias f4 [8]
00000000: 8bc7 783d 1c95 30b8 85c9 6bbd 3ca2 95bd
00000010: 06dc 2bbd 6625 f8bd 8445 83bd 9e65 16bc
0.060737174 -4.210054e-05 -0.05756523 -0.073063344 -0.041957878 -0.12116508 -0.064097434 -0.009179501

fc1.weight f4 [32, 512]
00000000: 4c2e de3c 26a4 6dbc a1cd 43bb 9b1f eb3c
00000010: 5a87 d3bc 760d 58bc bc88 033d 26ea 2b3d
00000020: 3806 1dba ef8a c4bc 0b59 293d f3ae 693c
00000030: 70b2 133d 19c0 2abd 1c1e 1e3d e027 a1bb
00000040: 7af8 95bc 5342 0b3d c936 273d da5a e5bc
00000050: 8954 d0bc d40f 093a 9ae8 153c 1948 313c
00000060: 850e 23bd d5a3 1abc 36b1 11bc 7f15 c0bc
00000070: b045 f13c 4089 df3c 2db2 093c de10 febc
00000080: a078 013d d3f5 2f3d abe8 043a 19b0 153d
00000090: ebc0 1c3c 1d18 583b 5958 ab3c 1f47 d9bc
000000a0: de02 d9bc 7633 0b3c f12e 2bbd f4be a33c
000000b0: 3cfe 773c 10f7 6d3c 4eea edbc 03c4 e0b9
000000c0: 684e 4abc dbcc 8fbc 5651 5abb 0084 46bc
000000d0: 2cc8 36bd 8fc9 243c e385 bd3c 4bfc e1bc
000000e0: 3ca6 26bd 08a8 8cbc a792 db3c 3f32 90bc
000000f0: d43e cd3c 968a fd3b 8491 e53c d1ae 0a3d
00000100: 900d 6bbc 5de7 32bc 8068 adbb adbc 133d
00000110: c020 9fbc 6631 333d adb9 983b 5a28 fb3a
00000120: 5f31 933b f061 ba3c 4c38 53b9 5ffb 983c
00000130: e8fd eb3c cdb9 32bd a565 b03c 85bc 2bbd
00000140: ad59 e73c 780a a3bb fd9d febc 351c e9bc
00000150: 269f f0bb 29b6 29bd 52f4 0cbd 1d20 07bd
00000160: 0703 a5bc 1c3a 4b3c 1c86 b63c f76e 74bc
00000170: 105f 033d 7a11 d1bc 8dbf 9b3c 5eb1 9d3c
00000180: afe8 1fbd 1461 553c 13eb d2bc eb30 c03a
00000190: 04b8 243d 6925 393b 2b9f 09bd dc68 193d
000001a0: 6e0e e43b 0689 1a3c cfd5 c5bb 465a 683c
000001b0: 6589 20bd 0a40 2b3c 4bc6 20bd e3ed c4bc
000001c0: 52bc e1bb 9e27 2bbc 0cfc 0bbc 15d4 0d3d
000001d0: 640c 2ebd fc97 e83c c418 62bc 4358 2a3d
000001e0: 344d 223d 163a bfbc 1dab 023c ee26 ca3c
000001f0: 9932 24bc 3137 14bc ac09 36bd 7698 2fbd
00000200: 6c1c a2bc fbf8 8ebc 50d1 f83c 01eb 30bd
00000210: abe7 d93a 7a18 cfbc 8d87 19bc 5555 20bd
00000220: f3f0 bcbc ce4f 0dbc 4c3f 94bc 97aa 2c3d
00000230: 3d2b 4c3c a381 89bc 6ff1 2c3d bce4 23bc
00000240: 4e8d 943b aed3 213d 5d87 92bc 2f28 d6bc
00000250: f067 2c3d 8e3e 493c 8e35 253d 2432 05bd
00000260: 827d 103d b596 2ebd a6e3 393c cc4b 31bd
00000270: 05e8 95bc 500e 823c 2ee1 8fbc c360 233c
00000280: 4ad5 fa3c cc7a 963c 5d25 3d3c 56cc a3bc
00000290: b9e0 263d 2468 043d f923 20bd 77e1 933b
000002a0: 3851 523a cf82 353c 8b8d 873c 9c9e 9fbc
000002b0: 238a 01bd 6f38 9c3c 12ea 1dbd bbb1 30bd
000002c0: ae0d a7bc 8225 bf3c 02de b23c 9f24 99bc
000002d0: 1127 d2bc 6859 2c3d 5d76 213c a52f fe3c
000002e0: 23b4 da3c a054 08bc c87d 263d cd18 783c
000002f0: 3412 12bd 8a33 20bd 5b62 01bb 5203 f0bb
00000300: fb5c 07bd da28 edbb 3fe7 ca3c dfad 9cbc
00000310: d72e e1bc 6f95 9bbb 2aff 1c3d dfec d1bb
00000320: f6a6 b13b 5dd6 22bd 3530 98bc 335c 08bd
00000330: 85c3 64bc 054c f83c dd68 323c 5f38 173c
00000340: 9ce4 8abc 6362 e83b d3c5 d03c 9d89 043d
00000350: 567a a7bc 5725 bf3c 25eb 1ebd c0ac cd3c
00000360: 8a97 963c 8c6c 96bc d6d1 ecbc e0ce 1f3d
00000370: 54c2 903b 422d 983b ce36 763c 9939 8abc
00000380: 0444 abbc a4e2 0ebc 341c 493b 88f8 343d
00000390: 7110 983c 98e3 fcbc 2c01 ce3b 3467 e73c
000003a0: d703 32bd 7efc 203d 02b8 81bc 266a acbc
000003b0: 6ec1 16bb 01b9 c4bc aa00 e73c ce17 283d
000003c0: e993 d83b a5a1 913c d9d0 893c 3459 d03c
000003d0: b1fc 383b 5c27 0b3d e1be 1f3d fae0 c83c
000003e0: a007 e3bc f583 183d 37ec b33b 1c8a fabb
000003f0: 5823 003d bf8b 8b3c a992 183d bda0 ebbc
0.027121685 -0.014504468 -0.0029877203 0.028701594 -0.025821377 -0.013186803 0.032112822 0.04197135
-0.00059900014 -0.02399203 0.041344684 0.014262903 0.036058843 -0.041687105 0.038602933 -0.0049180835
-0.01830696 0.0339988 0.04082373 -0.027997423 -0.025430935 0.0005228494 0.009149695 0.010820412
-0.03980877 -0.009438475 -0.008892348 -0.02344775 0.029452175 0.027287126 0.008404297 -0.031013902
0.031609178 0.042959046 0.00050700706 0.036544893 0.00956748 0.0032973357 0.02091615 -0.026523171
-0.026490625 0.008496156 -0.041792814 0.019988514 0.015136298 0.014524236 -0.02904239 -0.0004287065
-0.012347795 -0.017553737 -0.003331264 -0.012116432 -0.044624493 0.010057821 0.023135131 -0.027586123
-0.040685877 -0.017169967 0.026803328 -0.017602084 0.025054373 0.007737468 0.028023489 0.033858124
-0.014346495 -0.010919419 -0.0052919984 0.036068607 -0.019424796 0.043748282 0.004660806 0.0019161806
0.0044919695 0.022751778 -0.000201435 0.01867455 0.028807595 -0.043634225 0.021532843 -0.041927833
0.028241003 -0.004975613 -0.031081194 -0.028455833 -0.0073431907 -0.041433487 -0.03441269 -0.03298961
-0.020143045 0.012403991 0.022280745 -0.014919034 0.03207308 -0.025521029 0.019012237 0.019249614
-0.039040264 0.0130236335 -0.025746858 0.0014663016 0.040214553 0.0028251058 -0.03359906 0.037453517
0.006959728 0.009432083 -0.006037451 0.014181679 -0.03919353 0.01045228 -0.039251607 -0.024039214
-0.0068889046 -0.010446457 -0.008543979 0.034626085 -0.042492285 0.028392784 -0.01379985 0.04158808
0.039624408 -0.023343127 0.007975367 0.024676766 -0.010021829 -0.009046362 -0.044442818 -0.042870007
-0.019788943 -0.017452708 0.030373245 -0.043192867 0.0016624829 -0.025280226 -0.009370697 -0.03914388
-0.023064112 -0.008624984 -0.018096589 0.042154875 0.012461481 -0.016785448 0.042222437 -0.010003265
0.0045334464 0.039508514 -0.017886812 -0.026142208 0.04209131 0.012282981 0.040334277 -0.03251852
0.035275944 -0.042624194 0.0113457795 -0.043285176 -0.018299112 0.015875965 -0.017563429 0.0099718
0.030619282 0.018369101 0.011544553 -0.019994896 0.040741656 0.03232588 -0.039096806 0.0045129615
0.0008022967 0.0110785505 0.016546985 -0.01948481 -0.031625878 0.019069878 -0.038553305 -0.043138247
-0.020392265 0.023333315 0.021834377 -0.01869422 -0.025653394 0.042077452 0.00985488 0.031028578
0.026697224 -0.008320957 0.040647298 0.015142632 -0.03566189 -0.03911165 -0.0019742462 -0.0073246146
-0.033047657 -0.007237536 0.02476847 -0.019125877 -0.027488155 -0.0047480385 0.03832928 -0.006406411
0.0054215146 -0.039755214 -0.018577674 -0.033291053 -0.013962631 0.030309686 0.010889259 0.0092297485
-0.016954713 0.0070918067 0.025484955 0.0323578 -0.020444077 0.023333235 -0.03879847 0.025106788
0.018382806 -0.018362306 -0.028908651 0.03901565 0.004417697 0.004644067 0.015027715 -0.016873168
-0.020906456 -0.0087210275 0.0030686976 0.04418233 0.018562527 -0.030870244 0.006286761 0.028247453
-0.043460693 0.039303295 -0.015834812 -0.02104671 -0.0023003477 -0.024013998 0.028198559 0.041038327
0.006609429 0.017777273 0.01682322 0.02543316 0.0028226788 0.033973083 0.039000396 0.02452134
-0.027713597 0.03723522 0.0054908055 -0.0076458585 0.031283706 0.01703441 0.03724924 -0.02876317

fc1.bias f4 [32]
00000000: d583 dabc aac7 85bc aa0d 3c3d 7cfb 00bd
00000010: fb08 173c a964 c33c 06f1 843b 37a5 13bd
00000020: 6a9c 26bd 178e f5bc 5646 663c d17d cebc
00000030: 6a17 8c3c 31d3 1e3d 5df4 063d a38b 593d
00000040: fa91 783c 4f7f d43c ba82 233d c200 5abc
00000050: 83a2 c2bc a02a 993c ce9d 31bd 885c 26bd
00000060: 6110 533d dd3c 95bc 56be 0f3d dc31 183a
00000070: 2b21 b03c 28b9 a7bb 7d66 28bd ccae a8bc
-0.02667419 -0.016330559 0.04591147 -0.031489834 0.00921845 0.02385171 0.0040570525 -0.036046233
-0.04067651 -0.02997498 0.014054855 -0.025206478 0.017101008 0.038775627 0.032947887 0.053111684
0.015171522 0.025939612 0.039919592 -0.013305845 -0.023759132 0.018697083 -0.043363385 -0.04061559
0.051529292 -0.018217498 0.035093628 0.00058057695 0.02150019 -0.005118508 -0.041113365 -0.020591162

fc2.weight f4 [2, 32]
00000000: fc04 b7bd a7b7 89be 882a 0c3d ec98 f33d
00000010: a639 823e 9f34 673e 04d6 32be 3284 313e
00000020: 038b 423e a83d 99bd d671 61be 86eb 2fbe
00000030: 4216 59be 54d0 efba 4cec 1cbe 37d5 30be
00000040: 2904 a53c 0290 7abe d827 26b9 4fbd ab3d
00000050: 795f 86be 6063 603d 505d 843e 087c 92bc
00000060: f23a 01be 1dba 1e3e 0df7 f4bd 481e 80be
00000070: 2402 6f3d 841a 0dbd 714c 853e ea8f 653e
00000080: 448d e5bd c6a9 173e 0593 2a3e d9b0 71be
00000090: fbd2 38be 854d ccbd 9186 0cbe e29d 35ba
000000a0: 1863 4cbd 3463 82bd a456 593e c2b2 813e
000000b0: 7d75 173e 6b61 573e 5564 cabd 1dac 4c3e
000000c0: ffb1 1ebe 828d 633e 4ce8 513e c35a 06be
000000d0: f016 093e 9fee dbbc 0a74 53be a44d a9bd
000000e0: 7bba 133e 3a73 8bbe 5c8c 503c cb76 823d
000000f0: 4213 ccbd d654 40be 8fd8 28be f069 48be
-0.089364976 -0.26897928 0.03422025 0.11894402 0.25434607 0.22578667 -0.17464453 0.17335585
0.18998341 -0.07482463 -0.22016081 -0.17179689 -0.21199897 -0.001829634 -0.15324515 -0.17268835
0.020143585 -0.24468997 -0.00015845837 0.08385717 -0.26244715 0.05478227 0.25852442 -0.017881408
-0.12620142 0.15500684 -0.11961184 -0.25023103 0.05835165 -0.034449115 0.26034883 0.2241818
-0.11208585 0.14810857 0.16657646 -0.23602618 -0.18049233 -0.09975723 -0.13723208 -0.00069281284
-0.04989919 -0.06366578 0.21224457 0.25331694 0.14790912 0.21033256 -0.09882418 0.19987531
-0.15497588 0.2222195 0.2049877 -0.1312056 0.13387656 -0.026847182 -0.20649734 -0.08266762
0.14426605 -0.27236348 0.012728777 0.06370314 -0.09964611 -0.18782362 -0.1648886 -0.19571662

fc2.bias f4 [2]
00000000: 8588 26bb 1559 093e
-0.0025410962 0.13412888
